client/snake-react/public/model_easy.onnx (onnx, 15882 bytes, 4 tensors)

linear1.weight f4 [256, 11]
-0.3003649 0.18338147 0.03916981 -0.04774424 -0.17507087 0.3252351 0.14104448 -0.17139256
-0.42184305 0.049099796 0.16508657 0.2989167 -0.31989515 0.058464207 0.03226416 -0.33944225
0.20258322 -0.26058376 -0.3360601 0.0711614 0.10006376 -0.1711655 0.4633122 -0.2188581
-0.05160535 -0.01884332 -0.055416696 0.0424848 -0.048186205 0.05215808 0.09229416 -0.090530574
-0.00669667 0.31137118 0.30145252 -0.34386542 -0.08333043 -0.2101276 0.24816221 0.012602592
0.32896104 0.050521027 -0.036559876 0.1003064 0.32507887 0.071896665 0.4671633 -0.077194
-0.2102332 -0.24188268 0.15630558 0.37285706 0.24925737 0.23344226 0.15319191 0.10349264
-0.19514425 0.006171752 -0.29802385 -0.0896893 0.3994093 -0.23514237 -0.2000134 0.1952388
-0.29329887 -0.026882363 0.013182834 -0.036606148 -0.24811475 -0.24987113 0.03352901 -0.02800431
0.46962318 -0.19395006 -0.42728627 -0.3510966 0.3196887 -0.35939124 0.04876816 0.06469226
-0.24022438 -0.35377094 0.15355943 0.08554968 -0.23775496 -0.18504599 0.041870296 0.17736496
-0.3421299 0.5430129 -0.2912126 -0.04301686 -0.1756357 -0.04820889 0.05159163 -0.31658208
-0.11220356 0.2260166 0.053125527 -0.21253426 -0.048372604 0.63730216 0.18257023 -0.31986034
9.815424e-05 -0.05098441 -0.098817214 -0.1325884 0.20147498 -0.29515922 0.096809894 -0.2393592
-0.5990901 -0.25427407 0.43030933 -0.34319997 0.12161527 0.16386715 -0.5176599 0.27803957
-0.22820729 0.03254753 -0.25445396 -0.028699981 -0.24073529 -0.072712794 -0.2628302 -0.17919195
-0.1436711 -0.01039876 0.22459447 -0.124774165 -0.1348865 -0.1425249 0.27262452 -0.12056265
0.32207918 -0.23957051 0.078981645 0.16997808 -0.115250014 -0.4649755 0.055766787 -0.7005059
0.11335173 0.43401635 0.19856015 0.14537844 0.12771991 -0.11963785 -0.11879735 -0.06745338
0.07407999 0.17011374 0.25829288 -0.21218432 0.430459 -0.020484699 -0.18566632 -0.13159524
0.082334444 0.14146556 0.19005011 0.26823005 0.0084509645 0.49302912 -0.6311847 -0.10890198
-0.04397519 0.19792613 0.41194224 -0.29051247 0.1652878 0.08439979 -0.23678543 0.35227403
-0.07509261 -0.072405756 0.15581062 0.15464248 -0.24722485 -0.15396088 -0.3810553 0.21375962
-0.0031441264 -0.2642262 -0.06724651 -0.53878576 0.119944476 0.27236673 0.12951218 0.10700582
-0.38143235 -0.30840427 0.4834815 0.35660657 -0.039508145 0.055974837 -0.20544432 0.20053844
-0.123989575 0.011814237 -0.46544766 0.2757876 -0.30396515 0.26250547 -0.4211699 0.23445405
-0.3077051 -0.5055469 0.11053638 0.03514585 -0.15238132 -0.09239209 0.01279743 0.23350944
0.30955774 0.29405257 -0.090887494 0.18856972 0.1961584 -0.2795527 0.5132768 0.09627502
-0.4735261 0.1258157 0.2730886 -0.001769134 0.1281413 0.26486585 -0.22455555 0.19571121
-0.25095677 -0.359758 -0.29771498 -0.34686875 -0.0059125554 -0.127526 0.09409731 0.18586642
0.044054855 0.06840157 -0.059428196 -0.44723898 0.7191352 -0.13107143 0.105034724 -0.030629328
0.10782723 0.31454837 0.23331876 0.15547335 0.40311813 -0.033307213 0.014072785 0.07442535
00000000: 6ec9 99be 5ac8 3b3e 8670 203d 778f 43bd
00000010: c745 33be 3785 a63e f76d 103e 8881 2fbe
00000020: d0fb d7be de1c 493d 740c 293e 9c0b 993e
00000030: 4cc9 a3be 2a78 6f3d 6d27 043d 60cb adbe
00000040: fa71 4f3e 3c6b 85be 1210 acbe 11bd 913d
00000050: 3bee cc3d 0246 2fbe 4237 ed3e 561c 60be
00000060: 2260 53bd 4e5d 9abc 9efc 62bd 8b04 2e3d
00000070: e65e 45bd b6a3 553d b804 bd3d 1868 b9bd
00000080: bd6f dbbb 0b6c 9f3e fc57 9a3e 210f b0be
00000090: 25a9 aabd b12b 57be 3c1e 7e3e 1a7b 4e3c
000000a0: 956d a83e 23ef 4e3d cfbf 15bd 716d cd3d
000000b0: bd70 a63e 8f3e 933d 0730 ef3e e317 9ebd
000000c0: 5f47 57be 18b0 77be 920e 203e 1fe7 be3e
000000d0: 533d 7f3e 7d0b 6f3e 57de 1c3e f3f3 d33d
000000e0: e5d3 47be 683c ca3b 9596 98be 06af b7bd
000000f0: 607f cc3e 29c9 70be 50d0 4cbe aeec 473e
00000100: 452b 96be 6738 dcbc d0fc 573c 54f0 15bd
00000110: cb11 7ebe 38de 7fbe b755 093d 4b69 e5bc
00000120: 7372 f03e d89a 46be 44c5 dabe efc2 b3be
00000130: 3dae a33e 2102 b8be 1fc1 473d 607d 843d
00000140: 61fd 75be 7721 b5be af3e 1d3e ac34 af3d
00000150: 0976 73be b27c 3dbe 3080 2b3d 299f 353e
00000160: a62b afbe e502 0b3f d119 95be 7232 30bd
00000170: d8d9 33be af76 45bd bf51 533d 0c17 a2be
00000180: fbca e5bd e570 673e 279a 593d 95a2 59be
00000190: 5a22 46bd 3c26 233f b1f3 3a3e bcc4 a3be
000001a0: 28d8 cd38 07d5 50bd ae60 cabd 41c5 07be
000001b0: 754f 4e3e 1c1f 97be 4444 c63d 941a 75be
000001c0: f85d 19bf 3630 82be 8151 dc3e e8b7 afbe
000001d0: 6d11 f93d cacc 273e 5c85 04bf 345b 8e3e
000001e0: 2caf 69be 8f50 053d ca47 82be 391c ebbc
000001f0: 5083 76be 72ea 94bd ae91 86be 187e 37be
00000200: 841e 13be 905f 2abc 18fc 653e 9989 ffbd
00000210: b01f 0abe 0cf2 11be 7195 8b3e 8de9 f6bd
00000220: 90e7 a43e f951 75be 21c1 a13d bc0e 2e3e
00000230: 3308 ecbd 4511 eebe b76b 643d 5b54 33bf
00000240: f424 e83d 6437 de3e 5a53 4b3e 16de 143e
00000250: 02c9 023e b004 f5bd 064c f3bd ff24 8abd
00000260: 40b7 973d 4c32 2e3e f73e 843e d946 59be
00000270: 1f65 dc3e 87cf a7bc 501f 3ebe e7c0 06be
00000280: f69e a83d 59dc 103e 7f9c 423e 7355 893e
00000290: ea75 0a3c 506e fc3e 5295 21bf 0008 dfbd
000002a0: 541f 34bd 26ad 4a3e 18ea d23e 0dbe 94be
000002b0: 3441 293e ccd9 ac3d e177 72be 435d b43e
000002c0: 28ca 99bd 7849 94bd d28c 1f3e 995a 1e3e
000002d0: 8328 7dbe eca7 1dbe ae19 c3be cde3 5a3e
000002e0: b00d 4ebb a848 87be 8ab8 89bd dded 09bf
000002f0: 73a5 f53d a773 8b3e d79e 043e de25 db3d
00000300: 1a4b c3be 2ae7 9dbe e38a f73e 2395 b63e
00000310: 4bd3 21bd df45 653d ff5f 52be f359 4d3e
00000320: 3fee fdbd 8090 413c 284f eebe 0834 8d3e
00000330: 52a1 9bbe 1e67 863e 95a3 d7be b914 703e
00000340: 868b 9dbe 866b 01bf e660 e23d 18f5 0f3d
00000350: d909 1cbe 1038 bdbd 50ac 513c 191d 6f3e
00000360: 5a7e 9e3e 0f8e 963e 3923 babd 6c18 413e
00000370: bfdd 483e 8821 8fbe 1c66 033f d62b c53d
00000380: 0372 f2be d5d5 003e 45d2 8b3e 49e2 e7ba
00000390: 7937 033e 7f9c 873e e4f1 65be 8568 483e
000003a0: 687d 80be 3332 b8be 196e 98be c898 b1be
000003b0: 1cbe c1bb 2d96 02be 17b6 c03d c453 3e3e
000003c0: dd72 343d 1f16 8c3d fb6a 73bd 82fc e4be
000003d0: 3f19 383f 9737 06be 721c d73d 5bea fabc
000003e0: 86d4 dc3d 7c0c a13e 1deb 6e3e 6834 1f3e
000003f0: 8065 ce3e 256d 08bd 8a91 663c 516c 983d

linear1.bias f4 [256]
0.05556141 -0.0018477141 -0.16403739 -0.26861766 0.0054034875 -0.12949753 -0.15862101 0.12264434
0.13944282 0.0838121 0.06119421 -0.26661444 0.027255248 0.24893263 -0.14976777 -0.19914365
0.014297824 -0.11617235 0.09558087 0.23374154 -0.09253577 -0.063591175 -0.28514552 0.04716193
-0.14541876 -0.08179855 0.02212688 0.04153664 -0.11451057 -0.07264005 0.2958385 -0.15641141
-0.048568398 -0.28392056 0.041865945 0.06409241 -0.20797475 -0.16359152 -0.1876653 -0.22593036
-0.046615124 -0.08064832 -0.15524493 0.13951267 0.05994302 -0.15766749 -0.10424392 -0.15869598
-0.0835977 -0.14696598 -0.19461289 0.006300812 0.15110423 0.026369015 -0.048110582 -0.06484316
-0.11739149 0.06435486 0.03939278 0.14712603 0.16062221 -0.33014834 -0.2703098 0.22558461
-0.18950108 -0.0872246 -0.3066378 0.03569002 -0.20850088 0.035418894 -0.0052172164 -0.04524939
-0.33728635 -0.38352716 0.1381456 0.05650543 -0.09642151 -0.06902752 0.16378929 0.28010616
0.06454869 0.065170296 0.24055183 -0.024962937 -0.010753623 0.005703284 0.21336487 -0.1383983
0.12865397 -0.17439812 0.010952876 -0.25952673 -0.09294494 0.20035411 0.16402863 -0.2811608
-0.030051004 -0.31172737 -0.16067414 0.083152816 -0.028666846 -0.09646018 -0.13616404 -0.31957638
-0.11514186 -0.06904326 0.073306866 0.015405919 0.3847253 -0.22147724 0.098684266 -0.04215587
0.2348194 -0.11785852 -0.1923886 0.014602173 -0.13656415 0.18773894 -0.17604561 0.17949319
-0.30713502 -0.3345143 0.23503405 -0.16718227 -0.14149164 -0.21801123 0.2870588 0.04547765
0.019044511 0.19384654 -0.04991453 -0.19704784 -0.18884583 -0.1142376 -0.27247185 0.44019395
0.12699583 0.14266135 0.053372413 -0.19837143 -0.13263671 0.0037909497 -0.09567526 -0.05877364
0.07329704 -0.32676116 -0.07524377 -0.23512624 -0.31298807 0.27784857 0.03846864 -0.0065355743
0.041979548 0.1150021 0.055001035 -0.119196415 0.15982069 0.2506324 -0.26014277 -0.023267264
0.06541692 -0.2546836 -0.16274627 -0.12710877 0.17309552 -0.2872979 -0.10604873 -0.28104067
0.22076057 0.19777504 0.06832538 0.123331755 -0.19554818 -0.055164963 -0.2640717 -0.03767144
-0.14545478 0.17674914 0.26378378 -0.10383238 0.23249859 0.0028751884 -0.08185342 -0.1013723
0.42550245 -0.1510029 -0.10134195 0.30860958 -0.3839608 0.03825117 -0.30490813 0.21470846
-0.13028601 0.05707406 -0.117190056 -0.1788185 -0.007636251 -0.08852629 0.12415781 -0.1142274
0.08278338 0.23525773 0.14826937 -0.14805967 -0.0065085855 0.15178418 0.043669738 -0.19902083
0.3295101 -0.24217036 -0.1332837 0.094737135 -0.12168657 -0.0679353 -0.11120362 0.20392618
-0.05911936 -0.107256904 0.19567652 -0.06414177 -0.06069463 -0.11904609 0.308415 -0.1584562
-0.07948112 -0.17581643 -0.06915323 -0.029243508 -0.13638262 -0.29497364 -0.11263326 -0.0037763512
-0.062094256 -0.2607992 0.03703719 -0.082717426 -0.19070964 0.19237341 -0.07633078 -0.034250706
0.02330745 0.0006855548 0.20305568 0.07506447 -0.029291257 -0.25954843 -0.13495366 -0.08821792
0.1618269 0.07308592 0.06892573 -0.036468685 -0.03831846 -0.2653635 0.18053338 0.2593736
00000000: 5c94 633d ff2e f2ba 6bf9 27be 4188 89be
00000010: bd0f b13b 009b 04be 8c6d 22be f52c fb3d
00000020: 19ca 0e3e aea5 ab3d c8a6 7a3d b081 88be
00000030: 6646 df3c 32e8 7e3e b95c 19be 50ec 4bbe
00000040: 6c41 6a3c c5eb edbd e7bf c33d f159 6f3e
00000050: 6583 bdbd 173c 82bd 98fe 91be de2c 413d
00000060: a8e8 14be 0086 a7bd 6e43 b53c 5322 2a3d
00000070: 8584 eabd 4ec4 94bd 2578 973e 502a 20be
00000080: a8ef 46bd 095e 91be a07b 2b3d e242 833d
00000090: 55f7 54be 8984 27be 552b 40be 4a5a 67be
000000a0: 80ef 3ebd f22a a5bd 87f8 1ebe 69dc 0e3e
000000b0: d086 753d 9673 21be d67d d5bd 3381 22be
000000c0: 4535 abbd 407e 16be 9a48 47be 0b77 ce3b
000000d0: 11bb 1a3e d503 d83c 9a0f 45bd 7ecc 84bd
000000e0: f36a f0bd 7bcc 833d 535a 213d 35a8 163e
000000f0: 267a 243e 3409 a9be 0c66 8abe a7ff 663e
00000100: 920c 42be d0a2 b2bd a1ff 9cbe b32f 123d
00000110: 4181 55be 6713 113d 2ff5 aabb 6d57 39bd
00000120: ccb0 acbe ac5d c4be 0a76 0d3e 3d72 673d
00000130: a478 c5bd 4d5e 8dbd 61b8 273e 136a 8f3e
00000140: 1b32 843d 0178 853d 3853 763e 137f ccbc
00000150: f72f 30bc 9de2 ba3b 527c 5a3e 49b8 0dbe
00000160: debd 033e 6c95 32be b173 333c b0e0 84be
00000170: eb59 bebd a129 4d3e 1ff7 273e 4ff4 8fbe
00000180: 862d f6bc bb9a 9fbe c387 24be 064c aa3d
00000190: bcd6 eabc ea8c c5bd 966e 0bbe 849f a3be
000001a0: 7fcf ebbd 8d66 8dbd e921 963d 1c69 7c3c
000001b0: b7fa c43e eeca 62be fa1a ca3d a2ab 2cbd
000001c0: 7f74 703e cf5f f1bd 8401 45be f43d 6f3c
000001d0: 79d7 0bbe a33e 403e 4d45 34be 10cd 373e
000001e0: cd40 9dbe 7545 abbe c4ac 703e d431 2bbe
000001f0: 2fe3 10be 563e 5fbe 5ff9 923e c646 3a3d
00000200: 3c03 9c3c b57f 463e 2e73 4cbd e9c6 49be
00000210: cd60 41be 67f5 e9bd 6e81 8bbe 1a61 e13e
00000220: 320b 023e d115 123e 089d 5a3d e121 4bbe
00000230: ebd1 07be 9571 783b 64f1 c3bd a1bc 70bd
00000240: c21c 963d 3d4d a7be 6819 9abd efc4 70be
00000250: f93f a0be 2b42 8e3e 4b91 1d3d 5f28 d6bb
00000260: bff2 2b3d 3986 eb3d c448 613d 401d f4bd
00000270: 09a8 233e e452 803e 6f31 85be fd9a bebc
00000280: 4ef9 853d e465 82be f5a6 26be cd28 02be
00000290: f43f 313e b618 93be 1430 d9bd 90e4 8fbe
000002a0: 0f0f 623e 8a85 4a3e 2dee 8b3d 5c95 fc3d
000002b0: c83d 48be a8f4 61bd 6834 87be 5e4d 1abd
000002c0: 19f2 14be bafd 343e ab0e 873e 12a6 d4bd
000002d0: 1c14 6e3e a86d 3c3b c4a2 a7bd 489c cfbd
000002e0: 75db d93e 81a0 1abe 5e8c cfbd 1302 9e3e
000002f0: 8396 c4be 42ad 1c3d eb1c 9cbe 89dc 5b3e
00000300: b269 05be 7dc6 693d 5701 f0bd 321c 37be
00000310: 8439 fabb 464d b5bd 7346 fe3d 0ef0 e9bd
00000320: 558a a93d 67e7 703e edd3 173e f49c 17be
00000330: f945 d5bb 506d 1b3e 0adf 323d 1ecc 4bbe
00000340: 8cb5 a83e 82fb 77be 867b 08be 8b05 c23d
00000350: cf36 f9bd aa21 8bbd b9be e3bd 06d2 503e
00000360: 2427 72bd 82a9 dbbd 6d5f 483e c35c 83bd
00000370: ef9a 78bd 70ce f3bd 92e8 9d3e 5842 22be
00000380: ffc6 a2bd 3909 34be 35a0 8dbd 1590 efbc
00000390: e3a7 0bbe c906 97be 44ac e6bd a97c 77bb
000003a0: 8c56 7ebd 7987 85be 4fb4 173d c167 a9bd
000003b0: 6349 43be 89fd 443e 5053 9cbd 784a 0cbd
000003c0: 44ef be3c ceb6 333a d4ed 4f3e 67bb 993d
000003d0: 38f4 efbc 88e3 84be 4b31 0abe 99ab b4bd
000003e0: f3b5 253e 12ae 953d ef28 8d3d 3060 15bd
000003f0: d1f3 1cbd badd 87be bedd 383e 9ecc 843e

linear2.weight f4 [3, 256]
0.23375107 0.029173188 -0.1153597 -0.23130043 -0.15283166 -0.23795946 0.31832394 0.14637904
0.08103443 0.07688716 -0.39853862 0.037972078 0.10309733 0.12688966 -0.2357776 -0.39082736
0.11191078 0.14396748 0.25161695 0.01253724 -0.08866992 -0.081524655 -0.07444354 -0.0822071
-0.16927578 -0.08335926 0.07288586 -0.12702833 -0.37454456 -0.2401274 0.113564506 0.24709675
0.19518606 0.058983967 -0.040708013 -0.042262793 -0.053548347 -0.32776883 -0.13642216 -0.092154436
0.17453311 -0.42914802 -0.19392066 -0.2255061 -0.34789842 -0.18522057 -0.33226854 -0.3141587
0.15046258 -0.21183503 -0.20458524 0.106742956 -0.03862493 -0.082014136 0.019967318 -0.14904061
-0.4560371 0.4282136 -0.047196433 -0.0450955 0.05359254 -0.2945089 -0.39385 0.08143784
-0.36881524 -0.19092037 -0.0189649 -0.30366775 -0.18911584 0.12670004 -0.25134808 -0.12136131
-0.32214344 0.16857187 0.017391097 0.34839842 0.4279274 0.04958854 -0.07773501 0.1621786
0.055502143 0.09488833 0.21334095 -0.020620218 -0.08570178 -0.052217014 0.038051963 -0.14182088
0.16622639 -0.07466276 -0.33289528 -0.17936558 -0.18011305 0.18971507 -0.10380128 0.08938522
-0.09649717 0.245976 -0.1413194 -0.19439127 0.23304924 -0.13821185 -0.07652435 -0.01523303
-0.051192157 -0.16309933 -0.04577898 0.5017845 0.11702108 0.0076521644 0.02940398 -0.20355563
0.10321638 -0.044245165 0.0144554265 0.11830664 -0.040766567 0.011240958 -0.45684195 0.26142615
0.0002909099 -0.017809706 0.29809356 -0.19435781 0.059790265 -0.06261431 0.1295717 -0.010836085
0.08157116 0.2552567 0.02663248 -0.4118628 -0.24424998 0.00046481303 -0.23004618 0.31724417
-0.08148254 -0.025892345 -0.0037835194 0.017226633 -0.25404963 -0.11215919 0.031002145 -0.119163744
0.1746068 -0.019465856 -0.23660791 -0.24591403 -0.18509215 0.4572085 -0.17275396 -0.56004804
-0.066129334 0.12842782 -0.27335778 -0.4629294 -0.036943715 0.014457435 -0.5761828 -0.045132224
-0.11135941 -0.008172786 -0.10765434 -0.028322618 0.18351008 0.030487604 -0.3402124 0.06931732
0.24225855 0.063851885 0.17569682 0.16798528 -0.16960508 -0.42096025 -0.06174603 -0.13830149
0.2182363 0.114472196 -0.23591118 -0.12518035 0.12655412 -0.5704919 -0.18590629 0.19297244
0.24574168 -0.50796384 0.20217921 0.21143876 -0.2869967 0.033414878 -0.2796464 0.013078584
0.2564234 0.07137026 -0.20625904 0.25850397 -0.13835023 -0.070868276 0.14716576 -0.31986126
0.01710352 0.3515538 0.104980774 -0.012558062 -0.02467 -0.15487485 0.15695247 -0.0022195808
0.097739525 -0.024531424 -0.2555397 -0.0624896 0.36718193 -0.08288468 -0.2644885 0.021765364
-0.02064884 -0.081914715 0.03467309 0.1173158 0.2917907 -0.39483136 0.19535433 0.06472459
-0.3847311 0.08630188 0.018588135 -0.13341182 -0.0009617584 -0.0024835512 -0.31001997 -0.01152815
0.101642326 -0.030183755 -0.18990557 -0.059474047 -0.19700848 0.1573177 -0.30163464 0.3943391
-0.15338087 -0.12714843 0.18159102 -0.017606763 -0.003952508 -0.20633961 -0.13157633 0.22895245
-0.22414885 -0.15192667 -0.45629773 0.34235245 -0.4306811 0.043238774 -0.17019203 0.55833596
00000000: 715c 6f3e 9cfc ee3c b541 ecbd 05da 6cbe
00000010: e77f 1cbe a5ab 73be 5bfb a23e 63e4 153e
00000020: 61f5 a53d 0477 9d3d 410d ccbe 9c88 1b3d
00000030: b124 d33d 5def 013e af6f 71be 861a c8be
00000040: 7b31 e53d 366c 133e f0d3 803e ff68 4d3c
00000050: 9398 b5bd 66f6 a6bd db75 98bd 325c a8bd
00000060: a156 2dbe 42b8 aabd 2f45 953d b713 02be
00000070: 4ec4 bfbe f5e3 75be 8294 e83d ee06 7d3e
00000080: dbde 473e 2c99 713d 72bd 26bd c01b 2dbd
00000090: 8355 5bbd 51d1 a7be 40b2 0bbe 77bb bcbd
000000a0: cfb8 323e 4ab9 dbbe 2393 46be 12eb 66be
000000b0: be1f b2be 76aa 3dbe 1a1f aabe 69d9 a0be
000000c0: dd12 1a3e 48eb 58be cb7e 51be 0d9c da3d
000000d0: 2d35 1ebd 07f7 a7bd 8092 a33c 1a9e 18be
000000e0: b27d e9be d03e db3e 0c51 41bd 0fb6 38bd
000000f0: da83 5b3d dfc9 96be b5a6 c9be e2c8 a63d
00000100: 5ad5 bcbe a180 43be 475c 9bbc 577a 9bbe
00000110: 95a7 41be a8bd 013e b2b0 80be 478c f8bd
00000120: fcef a4be 1b9e 2c3e c677 8e3c 4761 b23e
00000130: 4d19 db3e 5a1d 4b3d 8833 9fbd 2612 263e
00000140: 3756 633d d054 c23d 0d76 5a3e bbeb a8bc
00000150: 6a84 afbd 82e1 55bd 60dc 1b3d 7e39 11be
00000160: 4037 2a3e cae8 98bd 4071 aabe 9cab 37be
00000170: 8e6f 38be ab44 423e c495 d4bd 990f b73d
00000180: 4fa0 c5bd 22e1 7b3e 08b6 10be 810e 47be
00000190: 76a4 6e3e 6887 0dbe ccb8 9cbd f593 79bc
000001a0: deae 51bd 8303 27be bd82 3bbd f374 003f
000001b0: bfa8 ef3d 02bf fa3b 9ee0 f03c e370 50be
000001c0: 1c63 d33d 6b3a 35bd 74d6 6c3c c04a f23d
000001d0: d8fa 26bd ff2b 383c 30e7 e9be a6d9 853e
000001e0: 4485 9839 a9e5 91bc b89f 983e bc05 47be
000001f0: a3e6 743d ee3b 80bd 72ae 043e d689 31bc
00000200: c80e a73d 02b1 823e 5c2c da3c aedf d2be
00000210: ab1c 7abe 26b2 f339 3a91 6bbe d46d a23e
00000220: 51e0 a6bd 2f1c d4bc ecf4 77bb de1e 8d3c
00000230: cb12 82be b8b3 e5bd 36f8 fd3c 1f0c f4bd
00000240: 20cc 323e dc76 9fbc 5849 72be e3d0 7bbe
00000250: cc88 3dbe 3c17 ea3e 6ae6 30be 4f5f 0fbf
00000260: d16e 87bd 9582 033e 8df5 8bbe 1505 edbe
00000270: 4b52 17bd e1de 6c3c b780 13bf 91dc 38bd
00000280: 6710 e4bd 26e7 05bc e179 dcbd d604 e8bc
00000290: 11ea 3b3e 24c1 f93c 5230 aebe 3df6 8d3d
000002a0: a012 783e c7c4 823d dee9 333e 5504 2c3e
000002b0: f4ac 2dbe 1a88 d7be 68e9 7cbd e89e 0dbe
000002c0: 5679 5f3e 6670 ea3d b392 71be 472f 00be
000002d0: 6797 013e c20b 12bf 385e 3ebe 919a 453e
000002e0: b5a3 7b3e eb09 02bf 1108 4f3e 6783 583e
000002f0: 3bf1 92be 0ade 083d d02d 8fbe 8f47 563c
00000300: ee49 833e 922a 923d 9235 53be a25a 843e
00000310: afab 0dbe 6323 91bd 9fb2 163e dbc4 a3be
00000320: ae1c 8c3c dcfe b33e 2900 d73d 54c0 4dbc
00000330: bd18 cabc 8397 1ebe 26b8 203e 6376 11bb
00000340: a92b c83d 20f6 c8bc 19d6 82be 18f5 7fbd
00000350: 45ff bb3e 71bf a9bd 096b 87be 474d b23c
00000360: c227 a9bc e7c2 a7bd 5f05 0e3d 4443 f03d
00000370: 9765 953e 5627 cabe f70a 483e 538e 843d
00000380: 7afb c4be 0abf b03d 2546 983c 1c9d 08be
00000390: 831e 7cba 13c3 22bb f0ba 9ebe 91e0 3cbc
000003a0: da29 d03d ec43 f7bc 9b76 42be 0f9b 73bd
000003b0: 97bc 49be e417 213e db6f 9abe d1e6 c93e
000003c0: e00f 1dbe 3333 02be fff2 393e 0f3c 90bc
000003d0: 0a84 81bb b14a 53be f2bb 06be 8372 6a3e
000003e0: 4787 65be aa92 1bbe db9f e9be d248 af3e
000003f0: 3c82 dcbe 241b 313d d246 2ebe 1bef 0e3f

linear2.bias f4 [3]
0.08118561 -0.09714358 -0.04071514
00000000: a444 a63d 37f3 c6bd ebc4 26bd
