client/snake-react/public/model.onnx (onnx, 15882 bytes, 4 tensors)

linear1.weight f4 [256, 11]
-0.55578184 0.015359242 0.1466801 0.03988793 -0.12137986 -0.13568811 -0.19138858 -0.11238011
0.024340166 -0.058883086 -0.2857519 0.214287 -1.0769521 -0.36227155 -0.67921275 0.18933584
0.8031058 -0.7258463 -0.7520012 -0.111615196 0.1079602 -1.4220392 0.25302586 0.29872704
0.15763906 -0.31549793 -0.04043619 -0.45385462 -0.030767938 0.66048443 0.3381427 0.66444516
0.43840498 0.44473755 -0.15492712 -0.5627266 0.47076982 0.16675356 -0.53587365 -0.1732254
-0.50666744 -0.9587167 0.44048834 0.15678908 -0.0426663 -0.63424456 0.1854522 0.16425616
-0.13915014 -0.11544924 0.11149173 -0.3717384 -0.10575592 0.13215889 -0.035176046 0.4130796
0.5599399 0.33386028 -0.5398252 -0.036163423 -0.24309957 -0.0012850844 0.5977863 0.31016633
0.5164383 0.2178559 0.34133616 -0.69316673 0.7960332 -0.06262509 -0.077894606 -0.022389634
-0.10935078 0.23030266 0.33056092 0.38325262 0.18792427 0.19748993 0.41567254 0.22901317
-0.08275839 -0.088602245 0.34927672 -0.30603355 -0.015752465 -0.2509933 -0.41559377 0.19829392
0.24296434 0.22873737 -0.58976436 -0.022703553 -0.2779004 -0.1597195 0.019366883 0.13793862
-0.14149387 -0.14847083 -0.080502026 0.24491294 0.37029946 0.104703836 -0.36898097 0.35928515
-0.6162966 0.05607346 0.21357106 -0.86754674 0.4627034 -0.30562475 0.77511513 -0.22139633
-0.009165214 -0.2756751 0.3444506 0.033582598 0.54597694 0.110590465 -0.21935023 0.020072058
-0.36816216 0.060311563 0.13406429 0.044319227 -0.22923642 -0.36445907 -0.06116098 -0.06362738
-0.12591612 -0.07683913 0.0069398866 0.03347705 -0.38199532 -0.40065455 -0.2425761 0.41941962
-0.43361077 0.5710933 -0.36956748 -0.6550199 0.4348853 -0.6106276 -0.10020475 -0.029853936
0.1274987 -0.2567078 0.4168626 -0.52485406 -0.34517542 0.65223044 0.26458716 -0.8587476
-1.0095155 0.07564097 0.29480073 -1.1650871 0.04388087 -0.4624937 0.15510735 0.16993155
-0.50567263 0.38509175 -0.27428368 -0.2478045 0.5070481 0.32995424 0.39744487 -0.37769377
-0.13586934 -0.28016698 -0.099526994 -0.09937144 -0.05554516 0.14818922 0.019311719 -0.0042344336
-0.36227313 0.23145278 0.26233247 0.1791029 -0.17071326 -0.28480175 -0.22147615 -0.370439
-0.5137281 -0.29645985 0.101181746 0.49168226 0.46403563 -0.3705128 -0.4884241 0.08693296
-0.35684907 -0.19512141 0.24101226 -0.32963502 0.06370275 -0.13418196 -0.21858075 -0.48640853
0.28321075 -0.42988408 0.015871132 0.05441479 -0.48457286 -0.10057651 -0.34701627 -0.57361925
-0.4401106 -0.059083212 0.13476217 0.16828153 -0.41079503 0.43705973 -0.3208222 0.25639385
-1.0692356 -0.79757136 0.36562264 -0.3844228 0.63741857 0.26085418 0.37729076 -0.2859049
-0.1027266 -0.20837095 -0.15868808 0.5073561 0.27862483 0.42209572 0.44227096 0.08554003
0.6162903 0.31434527 -0.3638386 -0.16367455 -0.19089122 -0.06517142 0.21364875 -0.15912208
0.001312515 0.099932134 0.2206558 -0.48612744 -0.6842969 -0.38282308 -0.20203479 0.25107256
0.0989657 0.18921752 -0.072652325 -0.5915325 -0.64274085 0.052628722 -0.30042744 -0.23791803
00000000: b847 0ebf 55a5 7b3c 4f33 163e 8761 233d
00000010: 0196 f8bd d3f1 0abe 5efb 43be 8b27 e6bd
00000020: 0765 c73c 642f 71bd 134e 92be 0d6e 5b3e
00000030: 91d9 89bf a87b b9be e3e0 2dbf 41e1 413e
00000040: 5798 4d3f 10d1 39bf 2783 40bf 8296 e4bd
00000050: 3d1a dd3d 6105 b6bf 9b8c 813e c0f2 983e
00000060: 226c 213e f288 a1be 6ba0 25bd a25f e8be
00000070: 0b0d fcbc 8215 293f 0a21 ad3e 1419 2a3f
00000080: 9e76 e03e a4b4 e33e 37a5 1ebe da0e 10bf
00000090: be08 f13e 72c1 2a3e 042f 09bf 0062 31be
000000a0: f5b4 01bf 756e 75bf b087 e13e 518d 203e
000000b0: dcc2 2ebd da5d 22bf 2ee7 3d3e c432 283e
000000c0: 607d 0ebe a770 ecbd c755 e43d 7f54 bebe
000000d0: 8f96 d8bd a954 073e c214 10bd 2b7f d33e
000000e0: 3958 0f3f bcef aa3e fc31 0abf 1920 14bd
000000f0: 18ef 78be 4770 a8ba 8608 193f 1fce 9e3e
00000100: 4d35 043f 9e15 5f3e 9dc3 ae3e 6073 31bf
00000110: d5c8 4b3f 9541 80bd 3587 9fbd 776a b7bc
00000120: 4df3 dfbd 76d4 6b3e 483f a93e b039 c43e
00000130: 386f 403e cd3a 4a3e 08d3 d43e 6e82 6a3e
00000140: 3b7d a9bd 1875 b5bd 66d4 b23e 6eb0 9cbe
00000150: 500b 81bc 3282 80be b5c8 d4be 900d 4b3e
00000160: a5cb 783e 213a 6a3e ccfa 16bf cdfc b9bc
00000170: f648 8ebe 828d 23be 4ca7 9e3c c83f 0d3e
00000180: c5e3 10be bd08 18be 3fde a4bd 75ca 7a3e
00000190: e497 bd3e f76e d63d 13eb bcbe 39f4 b73e
000001a0: 9dc5 1dbf 49ad 653d 5fb2 5a3e 8b17 5ebf
000001b0: 76e7 ec3e d97a 9cbe f26d 463f b8b5 62be
000001c0: b229 16bc 4925 8dbe d45b b03e e88d 093d
000001d0: 25c5 0b3f 417d e23d 599d 60be 286e a43c
000001e0: c07f bcbe 4209 773d 2648 093e 1488 353d
000001f0: f4bc 6abe 619a babe f083 7abd 124f 82bd
00000200: 28f0 00be d55d 9dbd fd67 e33b 3b1f 093d
00000210: e494 c3be 9822 cdbe df65 78be 2bbe d63e
00000220: 3b02 debe 2c33 123f f337 bdbe 62af 27bf
00000230: 49a9 de3e 1752 1cbf 2638 cdbd 3e90 f4bc
00000240: 058f 023e 346f 83be 046f d53e d65c 06bf
00000250: d5ba b0be 93f8 263f f877 873e e2d6 5bbf
00000260: ce37 81bf a7e9 9a3d 1ff0 963e 9321 95bf
00000270: 6dbc 333d f9cb ecbe 76d4 1e3e 8902 2e3e
00000280: c373 01bf bf2a c53e e96e 8cbe 76c0 7dbe
00000290: e7cd 013f c3ef a83e e57d cb3e 1461 c1be
000002a0: 5521 0bbe 0c72 8fbe cfd4 cbbd 4183 cbbd
000002b0: 5283 63bd eabe 173e 9c33 9e3c 01c1 8abb
000002c0: dd7b b9be f501 6d3e 7150 863e c066 373e
000002d0: 75cf 2ebe 89d1 91be a5ca 62be 2eaa bdbe
000002e0: af83 03bf 96c9 97be 6038 cf3d c7bd fb3e
000002f0: 1496 ed3e dbb3 bdbe b912 fabe e809 b23d
00000300: ecb4 b6be e8cd 47be ebcb 763e ecc5 a8be
00000310: 9676 823d ff66 09be a2d3 5fbe 8a0a f9be
00000320: 0001 913e c419 dcbe 2d04 823c 0be2 5e3d
00000330: ef19 f8be 0ffb cdbd 1eac b1be b6d8 12bf
00000340: 2d56 e1be 3d01 72bd 18ff 093e fe51 2c3e
00000350: ba53 d2be 4bc6 df3e cf42 a4be 0e46 833e
00000360: b6dc 88bf a32d 4cbf e432 bb3e 11d3 c4be
00000370: dd2d 233f ae8e 853e 412c c13e 2162 92be
00000380: 5362 d2bd 325f 55be 217f 22be 17e2 013f
00000390: eaa7 8e3e ee1c d83e 5771 e23e 9c2f af3d
000003a0: 33c5 1d3f ddf1 a03e 0e49 babe 4d9a 27be
000003b0: fd78 43be 9878 85bd bdc6 5a3e e6f0 22be
000003c0: b208 ac3a 38a9 cc3d 98f3 613e b2e5 f8be
000003d0: 152e 2fbf 6301 c4be 35e2 4ebe 958c 803e
000003e0: 87ae ca3d 3dc2 413e beca 94bd ad6e 17bf
000003f0: aa8a 24bf 3791 573d a0d1 99be c9a0 73be

linear1.bias f4 [256]
-0.3445077 0.38061926 -0.5148183 0.03353884 -0.5336632 -0.4021311 -0.28641358 -0.40744525
-0.61473626 -0.20979613 -0.20711905 -0.23411286 0.05447682 0.2815978 -0.059639044 -0.52530855
-0.18035644 -0.17522593 -0.0015310595 -0.20621352 -0.58633447 -0.5008501 0.16689806 -0.013717644
-0.41492328 -0.031504866 -0.23336405 -0.40962893 -0.3983938 -0.6220461 -0.3686413 -0.6390833
-0.53003573 -0.124966085 -0.05641447 -0.16967136 -0.170082 -0.43281344 -0.77403754 0.030479684
-0.44380978 0.74871135 0.70877236 0.018214623 0.009343817 -0.23572038 0.3655128 -0.56398433
-0.332094 0.26186648 0.14405435 -0.35215715 0.43381387 0.65073615 -0.091165364 -0.44502687
-0.38042504 -0.560258 -0.045969788 -0.14818396 -0.1819664 0.27325803 -0.08056357 0.027823936
-0.37296873 -0.24431227 0.06898098 0.06775846 0.01555918 -0.34997994 -0.28886896 -0.22886772
-0.4173759 0.100440614 -0.475793 -0.53914696 -0.6283851 -0.20787902 -0.043449987 -0.50483423
-0.3484075 -0.3419893 -0.81319815 -0.47637504 -0.38724634 -0.2634467 0.45782223 -0.12854938
-0.08951807 -0.0064004 -0.3337435 0.0046674395 -0.15095134 -0.0479894 0.23127782 0.018916383
0.030941809 -0.38794613 -0.6590741 -0.15554789 -0.1890277 -0.5101583 -0.06266684 -0.526778
-0.23531307 -0.10235213 0.02774796 0.29741555 -0.4112038 -0.45565546 0.08482932 -0.43036652
-0.21859367 0.6075043 -0.20434988 -0.3778741 0.59977967 -0.10197411 -0.23720309 -0.05265284
0.3996308 0.116212234 -0.11155563 -0.025323994 -0.4600269 -0.012551195 0.13424446 0.07323014
-0.24141307 -0.44902948 -0.18090132 -0.21986988 -0.22969398 0.37907073 -0.21699661 0.12226768
-0.420261 0.55848825 -0.118086495 -0.6055859 -0.34571505 1.7383791 0.047772672 -0.5701017
0.6790857 -0.4385357 -0.44945332 0.20558815 -0.11845099 -0.10323172 0.022744982 -0.6593186
0.42780063 -0.38836816 -0.5243956 0.52480614 -0.3598355 -0.2612272 0.02049743 -0.19407861
0.042116925 0.23851295 -0.3366301 -0.45680702 -0.078199744 -0.5346407 -0.28644633 -0.16189516
-0.2556383 0.93340087 0.29865304 -0.3600815 -0.4143758 0.017077584 -0.14092445 -0.33601546
-0.7527928 -0.14031501 -0.14732343 -0.10662077 -0.15711875 0.2228998 -0.35598543 -0.031738695
-0.013799604 -0.29769838 -0.3304245 0.16830058 -0.08092633 -0.34223804 0.17875211 -0.2180663
-0.059047036 -0.44665894 -0.13068369 -0.29407522 -0.48065737 -0.30478963 -0.20230561 -0.47504333
0.28154588 -0.03284105 0.3348401 -0.32385412 -0.36266044 0.44657487 -0.24267331 -0.30551142
0.06364397 -0.56966853 -0.41514796 -0.24439853 -0.501246 0.10510457 -0.069594845 -0.39650586
0.030851865 -0.37179816 -0.29450437 0.26401195 0.16945197 -0.30707914 -0.43881884 -0.2755402
-0.73395896 -0.2741211 0.1777398 -0.39998794 -0.073556334 -0.64459425 0.22261785 0.21856354
-0.023757363 -0.3256388 -0.13061726 -0.30109388 -0.5223674 0.24164091 0.09602279 1.6489786
-0.6720359 -0.5577002 0.0126916785 -0.23283759 0.12874201 -0.44157073 -0.1393124 -0.3946651
-0.40012804 0.1261638 -0.2567104 -0.47152182 -0.27658406 -0.16045433 -0.36891398 0.10837004
00000000: 5063 b0be 87e0 c23e 22cb 03bf 0660 093d
00000010: 279e 08bf 21e4 cdbe cda4 92be aa9c d0be
00000020: 5b5f 1dbf ccd4 56be 0417 54be 48bb 6fbe
00000030: 1623 5f3d 962d 903e 1248 74bd 9f7a 06bf
00000040: 5caf 38be 6d6e 33be d5ad c8ba a329 53be
00000050: 041a 16bf b637 00bf 53e7 2a3e f8bf 60bc
00000060: d370 d4be 3f0b 01bd fcf6 6ebe e2ba d1be
00000070: 46fa cbbe 6a3e 1fbf 8dbe bcbe f79a 23bf
00000080: 6cb0 07bf 38ee ffbd dc12 67bd 54be 2dbe
00000090: fa29 2ebe b999 ddbe 5327 46bf 88b0 f93c
000000a0: 093b e3be 8cab 3f3f 1b72 353f d536 953c
000000b0: cf16 193c af60 71be 7e24 bb3e 4761 10bf
000000c0: 3a08 aabe 5d13 863e fc82 133e f14d b4be
000000d0: da1c de3e a596 263f e8b4 babd 90da e3be
000000e0: 12c7 c2be 116d 0fbf d14a 3cbd 89bd 17be
000000f0: 6655 3abe 7ae8 8b3e 83fe a4bd 06ef e33c
00000100: c2f5 bebe ff2c 7abe e645 8d3d f3c4 8a3d
00000110: eeeb 7e3c 9230 b3be a2e6 93be 4d5c 6abe
00000120: 4bb2 d5be cfb3 cd3d 249b f3be 8905 0abf
00000130: d9dd 20bf 3dde 54be 9df8 31bd d13c 01bf
00000140: 7862 b2be 3919 afbe c12d 50bf 6ee7 f3be
00000150: 2745 c6be 7ce2 86be ad67 ea3e 73a2 03be
00000160: 4055 b7bd 72ba d1bb 6ee0 aabe 52f1 983b
00000170: fd92 1abe 8890 44bd 18d4 6c3e 88f6 9a3c
00000180: ad79 fd3c e0a0 c6be 15b9 28bf f247 1fbe
00000190: 7a90 41be bc99 02bf 7957 80bd ecda 06bf
000001a0: e9f5 70be fe9d d1bd b14f e33c da46 983e
000001b0: 4e89 d2be ac4b e9be ffba ad3d 0059 dcbe
000001c0: 05d7 5fbe 6785 1b3f 1841 51be b778 c1be
000001d0: 298b 193f cdd7 d0bd 5ee5 72be 81aa 57bd
000001e0: 699c cc3e ae00 ee3d 4777 e4bd 4474 cfbc
000001f0: a588 ebbe 87a3 4dbc 6177 093e aff9 953d
00000200: fd34 77be 31e7 e5be 323e 39be 9225 61be
00000210: e634 6bbe 8f15 c23e 5c34 5ebe 7a67 fa3d
00000220: 732c d7be 16f9 0e3f 55d7 f1bd ad07 1bbf
00000230: 9001 b1be 3583 de3f 47ad 433d 2ff2 11bf
00000240: 8fd8 2d3f c087 e0be bf1e e6be b385 523e
00000250: 6f96 f2bd 276b d3bd af53 ba3c 1bc9 28bf
00000260: af08 db3e 31d8 c6be ca3e 06bf b259 063f
00000270: 5c3c b8be 92bf 85be 3aea a73c 8bbc 46be
00000280: cc82 2c3d bd3c 743e c85a acbe 9ce2 e9be
00000290: 3027 a0bd 37de 08bf 18a9 92be d8c7 25be
000002a0: 06e3 82be 5cf3 6e3f 0de9 983e 9a5c b8be
000002b0: 1129 d4be 4ae6 8b3c 804e 10be 380a acbe
000002c0: 07b7 40bf bdae 0fbe f4db 16be fe5b dabd
000002d0: bde3 20be d83f 643e b943 b6be 6f00 02bd
000002e0: bc17 62bc ec6b 98be 662d a9be fd56 2c3e
000002f0: b4bc a5bd d339 afbe cb0a 373e c64c 5fbe
00000300: 4edb 71bd 7bb0 e4be f2d1 05be 0791 96be
00000310: b918 f6be 630d 9cbe 3429 4fbe e138 f3be
00000320: c826 903e 5684 06bd 2970 ab3e 35d0 a5be
00000330: a1ae b9be 76a5 e43e 5a7f 78be fe6b 9cbe
00000340: c557 823d ccd5 11bf 468e d4be 9c43 7abe
00000350: a851 00bf 1141 d73d be87 8ebd d102 cbbe
00000360: 0dbd fc3c 545c bebe 47c9 96be 932c 873e
00000370: d184 2d3e 7a39 9dbe ddac e0be 9b13 8dbe
00000380: bce4 3bbf 9a59 8cbe 6c01 363e 38cb ccbe
00000390: b4a4 96bd 2104 25bf eff5 633e 1fcf 5f3e
000003a0: cd9e c2bc 21ba a6be 88c0 05be fa28 9abe
000003b0: dfb9 05bf b770 773e 99a7 c43d bb11 d33f
000003c0: 8b0a 2cbf 71c5 0ebf c2f0 4f3c fa6c 6ebe
000003d0: f2d4 033e 8f15 e2be e9a7 0ebe 8b11 cabe
000003e0: 95dd ccbe 1531 013e 8c6f 83be 4f6b f1be
000003f0: 6d9c 8dbe 244e 24be 4be2 bcbe 1df1 dd3d

linear2.weight f4 [3, 256]
0.0345413 0.4268203 -0.17066321 -0.2643529 -0.03786005 -0.11109537 -0.033297375 0.04694087
0.034883566 -0.24136746 -0.13137795 0.017127385 -0.3815244 0.589937 -0.27162042 -0.0046854336
-0.006979514 -0.034413833 -0.107332595 -0.41260168 -0.04816185 0.009929502 -0.32205057 -0.07402764
-0.13191192 0.25577092 -0.15513943 -0.19502999 -0.2317598 -0.029915735 0.015692396 0.008886656
0.43074316 -0.024113856 -0.16349976 -0.02823261 0.0077921064 -0.098080635 0.07042957 0.027725296
-0.092957534 0.24930198 0.1770159 -0.27395085 0.28979388 0.016521562 0.16100155 -0.0051794904
0.08088306 -0.22304226 0.45234296 -0.1551261 0.18678866 0.4185257 -0.0041029025 -0.0069446005
0.018470535 0.0020861805 0.069026664 0.17309606 -0.34230635 0.39909288 -0.12885833 -0.11248619
0.03763962 -0.1318759 0.45346898 0.16212538 -0.0015656273 0.3119919 0.050427064 -0.37803385
-0.038909204 0.30992618 -0.0076964693 -0.11479944 0.03011301 -0.019583102 0.31777757 -0.07082669
-0.044783156 0.005815973 -0.020101665 0.032953244 0.077528365 -0.25111458 0.39672303 -0.18063657
0.08496968 0.26175797 -0.4266518 -0.29093692 -0.002296775 0.37272292 0.2988232 -0.2556652
-0.22535893 -0.0030048687 -0.08031186 -0.38383868 -0.47834417 0.013183589 -0.012925201 -0.43046376
0.04173559 0.08401985 -0.03149959 0.1644834 -0.0015536493 -0.0038372737 -0.08641992 0.16250542
-0.12466981 0.3847225 -0.013526453 -0.054152872 0.05543248 -0.0762375 0.00351238 -0.42569298
0.20303679 0.14603472 0.14431202 -0.13128491 -0.2927479 -0.22232814 -0.17744762 0.57565767
-0.010873184 0.11662199 -0.2742389 0.008406728 -0.120454855 0.31098512 -0.0046490366 0.15553066
-0.12045071 0.3715797 -0.06087206 -0.24724437 -0.09682284 0.32622874 -0.68202657 -0.04048128
0.3226907 -0.2325467 0.060567237 -0.054934207 -0.7207929 -0.1812884 -0.16552947 -0.0223661
0.20905519 -0.058183942 -0.0037017532 0.44854107 0.023631727 -0.11377277 0.087269045 -0.22207242
0.39359826 0.4958313 -0.03312917 -0.005399288 -0.54454917 -0.06395416 -0.2056054 0.009905161
-0.449159 0.28297582 0.5218965 -0.24926999 0.0008646889 -0.1270152 -0.2767014 0.0054703085
-0.048543103 -0.041829225 0.26869872 0.04166132 -0.12137899 0.19421259 0.007829815 0.07206093
-0.36450925 -0.54756606 -0.06859605 -0.19309214 -0.12139998 -0.62801224 0.37212294 -0.21174853
-0.15970862 -0.12859705 -0.011245182 -0.11241415 -0.12334564 -0.45483556 -0.04294012 0.03140299
-0.27711737 -0.19753292 0.65122116 0.002109707 -0.50707334 0.48277053 -0.0044853655 -0.87802255
0.18560743 0.03365246 -0.0350032 -0.18925035 0.05904097 0.12474814 0.002204009 -0.031921063
0.44418225 -0.008901064 -0.027708981 0.082755595 -0.0101822335 -0.04886817 0.033446204 -0.0052920016
-0.023602339 -0.0011606026 0.43765503 0.054579012 0.108973 -0.010026907 0.5955152 -0.49252954
-0.07980375 -0.09204669 0.6812633 0.0035932097 0.27545285 0.5154905 0.29888195 0.30704308
-0.019655252 -0.0074229585 -0.08022534 -0.09850975 -0.5664119 -0.028452286 -0.22110477 -0.017363044
-0.17321685 0.220145 0.0056222603 0.031074578 -0.015997859 -0.07912325 -0.008876039 -0.19659801
00000000: 2e7b 0d3d 3188 da3e 56c2 2ebe 4359 87be
00000010: 2413 1bbd f885 e3bd d462 08bd 1245 403d
00000020: 12e2 0e3d 0829 77be f187 06be bb4e 8c3c
00000030: 2b57 c3be 1c06 173f d511 8bbe 4488 99bb
00000040: 68b4 e4bb 85f5 0cbd 31d1 dbbd 8740 d3be
00000050: 5c45 45bd 5aaf 223c d0e3 a4be ce9b 97bd
00000060: eb13 07be 68f4 823e dfdc 1ebe f1b5 47be
00000070: 7152 6dbe d811 f5bc 578d 803c 5699 113c
00000080: 5e8a dc3e 6c8a c5bc 7b6c 27be 1348 e7bc
00000090: ed54 ff3b 80de c8bd 613d 903d 2920 e33c
000000a0: 8560 bebd 0549 7f3e a843 353e 4943 8cbe
000000b0: dd5f 943e 3a58 873c 97dd 243e b7b8 a9bb
000000c0: 05a6 a53d 3165 64be 7f99 e73e 60d9 1ebe
000000d0: 8745 3f3e 0049 d63e a471 86bb 888f e3bb
000000e0: 854f 973c 4db8 083b da5d 8d3d 1840 313e
000000f0: c742 afbe e755 cc3e 70f3 03be 295f e6bd
00000100: 012c 1a3d 7a0a 07be 162d e83e 3204 263e
00000110: bc35 cdba 67bd 9f3e 9c8c 4e3d a78d c1be
00000120: 425f 1fbd a5ae 9e3e aa32 fcbb f81b ebbd
00000130: 8faf f63c be6c a0bc beb3 a23e 950d 91bd
00000140: 8b6e 37bd eb93 be3b 3fac a4bc fbf9 063d
00000150: 31c7 9e3d 1792 80be 481f cb3e cbf8 38be
00000160: 9504 ae3d 2405 863e 1b72 dabe aff5 94be
00000170: 7e85 16bb 8ad5 be3e 5bff 983e 8de6 82be
00000180: 7ec4 66be 55ed 44bb 8b7a a4bd 8186 c4be
00000190: 87e9 f4be fbff 573c 39c4 53bc bf65 dcbe
000001a0: f0f2 2a3d 9912 ac3d b705 01bd 566e 283e
000001b0: d2a3 cbba c57a 7bbb edfc b0bd d267 263e
000001c0: e352 ffbd 59fa c43e 0e9e 5dbc 67cf 5dbd
000001d0: 2b0d 633d 6822 9cbd f52f 663b 6ef4 d9be
000001e0: e0e8 4f3e 208a 153e 88c6 133e 8d6f 06be
000001f0: 0ee3 95be fda9 63be d4b4 35be 4d5e 133f
00000200: 7025 32bc 83d7 ee3d 0b69 8cbe 5fbc 093c
00000210: 09b1 f6bd 7139 9f3e f256 98bb 6e43 1f3e
00000220: ddae f6bd b23f be3e fb54 79bd a12d 7dbe
00000230: 0e4b c6bd 7407 a73e 4b99 2ebf b3cf 25bd
00000240: b737 a53e b920 6ebe 5a15 783d b102 61bd
00000250: e285 38bf aba3 39be 8f80 29be 1d39 b7bc
00000260: 9012 563e 4952 6ebd 1d99 72bb 2da7 e53e
00000270: 5397 c13c b301 e9bd 1dba b23d f466 63be
00000280: b685 c93e 9add fd3e 74b2 07bd 83ec b0bb
00000290: 9367 0bbf 66fa 82bd 398a 52be 4249 223c
000002a0: 2bf8 e5be 35e2 903e 029b 053f a240 7fbe
000002b0: 4aac 623a 4610 02be ceab 8dbe 4640 b33b
000002c0: 22d5 46bd 1f55 2bbd e192 893e 0fa5 2a3d
000002d0: 8c95 f8bd aadf 463e a048 003c ae94 933d
000002e0: f5a0 babe 4a2d 0cbf 167c 8cbd f2b9 45be
000002f0: 8da0 f8bd 69c5 20bf e686 be3e 9bd4 58be
00000300: a88a 23be f2ae 03be b63d 38bc 6439 e6bd
00000310: a49c fcbd 35e0 e8be fbe1 2fbd 6ca0 003d
00000320: 54e2 8dbe 1246 4abe 6eb6 263f 0343 0a3b
00000330: 8fcf 01bf b32d f73e f9f9 92bb 16c6 60bf
00000340: e00f 3e3e 29d7 093d 845f 0fbd d8ca 41be
00000350: f2d4 713d f47b ff3d 2371 103b a9bf 02bd
00000360: db6b e33e c5d5 11bc f2fd e2bc c47b a93d
00000370: 62d3 26bc fd29 48bd e3fe 083d 8768 adbb
00000380: b159 c1bc 5c1f 98ba 5214 e03e 3e8e 5f3d
00000390: 3c2d df3d e547 24bc af73 183f d52c fcbe
000003a0: 2670 a3bd fa82 bcbd 4667 2e3f 0e7c 6b3b
000003b0: 2808 8d3e 2ff7 033f 0e07 993e c034 9d3e
000003c0: 0d04 a1bc 4a3c f3bb 2f4d a4bd 7bbf c9bd
000003d0: 5f00 11bf c514 e9bc 4a69 62be f13c 8ebc
000003e0: c25f 31be b16d 613e f03a b83b 1d90 fe3c
000003f0: f10d 83bc 5f0b a2bd ce6c 11bc fd50 49be

linear2.bias f4 [3]
0.38863555 0.03047538 0.18226166
00000000: 3dfb c63e 81a7 f93c cda2 3a3e
